models/pytorch_nn_model.pth (torch, 43042 bytes, 6 tensors)

model.0.weight f4 [128, 12]
000000 c0 69 1a be fa 00 00 bf 0d 31 97 3d e9 54 b4 bd
       -0.15079403 -0.5000149 0.073824026 -0.08805258
000010 c7 d8 ba 3e d1 0f ae bd 4c 7c 97 3e 74 7a 82 be
       0.36493513 -0.084991105 0.29587018 -0.2548405
000020 3f af 59 be c7 cc 69 be 8e 9b e5 bd da e3 3c be
       -0.21258257 -0.22832023 -0.1121131 -0.18446293
000030 4c d2 b3 3d 2d 72 6f be bb a2 7f 3d 37 1e 97 3e
       0.08780345 -0.23383398 0.06241105 0.2951524
000040 67 93 a3 be fb 88 0b bd 72 b3 2f 3e 83 e6 f0 3d
       -0.31948397 -0.03406618 0.17158297 0.117627166
000050 0a e2 ef 3d 35 8e e6 3d 71 dd 5e 3d 26 97 81 bd
       0.117130354 0.112575926 0.0544104 -0.063276574
000060 36 db 52 3e 1a 95 17 bf 97 42 00 3e ac 8f 05 be
       0.20591435 -0.59211886 0.12525402 -0.13043088
000070 c8 89 ac 3e c4 c4 13 be fd 82 02 3e f7 9d cf 3d
       0.3369887 -0.14430529 0.1274528 0.10137551
000080 74 c9 81 be ac e1 94 be bd 22 bf bd 49 ec 12 3e
       -0.2534901 -0.29078424 -0.09332798 0.14347948
000090 3e 2d 36 3e 5f 9f 2f 3e 41 7d 25 3e e6 59 e0 bd
       0.17790696 0.17150639 0.16161062 -0.10954647
0000a0 da c6 84 3e 60 99 89 3d 67 65 b7 be 1f e4 b9 bd
       0.25932962 0.06718707 -0.3581955 -0.09076714
0000b0 bf 3c eb be d6 56 07 3e 3e df 9a be 1d a0 de 3d
       -0.45944783 0.13216719 -0.30248445 0.10870383
0000c0 8e b7 c8 be e2 b1 da 3e 05 ea cb bd 2c 83 7c be
       -0.3920254 0.4271384 -0.09956745 -0.24659413
0000d0 32 90 b7 3e 40 7a 6c 3e 7a d3 a2 be c6 27 6b 3e
       0.358522 0.2309351 -0.3180197 0.22964391
0000e0 94 94 8e 3e e6 cf 98 3e 45 35 80 bd 8a 56 12 3e
       0.2784773 0.29846114 -0.0626016 0.14290825
0000f0 25 aa aa bd 25 51 eb be 29 26 10 3d d7 47 d7 be
       -0.08333234 -0.45960346 0.035192642 -0.42046997
000100 af 8e 22 bd bf 4a 21 bd 77 ac 7e 3e 04 ae c0 3c
       -0.039686855 -0.039377924 0.24870478 0.023520477
000110 21 69 d3 be a4 d3 37 be 11 f1 66 be 8b 3e 1a be
       -0.41291144 -0.17951828 -0.22552897 -0.15062921
000120 46 a4 86 3e 2e 89 bd be 9a 82 3f bd 06 de be bc
       0.26297206 -0.37018722 -0.04675541 -0.023299228
000130 61 2a cc 3e f9 c7 58 3d 98 c6 00 bf e0 54 e6 3d
       0.39876083 0.052925084 -0.5030303 0.11246657
000140 19 f5 fc 3c e5 88 11 bd 36 8a 2e bd 6d 56 01 be
       0.03087859 -0.035530943 -0.042612277 -0.12630625
000150 83 db 94 be 5e 23 78 3e 09 8d 05 bd 53 35 a6 bd
       -0.29073724 0.24232242 -0.032605205 -0.081156395
000160 6b 65 a2 bd 72 58 18 be a2 ba ad 3d 82 5e 6f 3e
       -0.079295 -0.14877489 0.08482863 0.23375896
000170 a1 62 b2 3e d3 7f 9b 3e b8 d5 83 3e 3b fc 70 3e
       0.34840873 0.3037096 0.25748992 0.23533718
000180 fa a2 83 3e 0e c7 f8 bd 7e 41 ad 3d d4 60 34 bf
       0.2571028 -0.12147342 0.08459757 -0.7046025
000190 81 40 a5 3e 75 f6 36 be 2a 27 a6 be 12 80 22 3e
       0.32275775 -0.17867453 -0.32451755 0.15869167
0001a0 a3 f1 c2 3c d8 ff 87 bd 1a b6 11 3f 72 01 d2 bd
       0.023796862 -0.06640595 0.5691849 -0.10254182
0001b0 46 eb a6 be 06 ed f3 be 4e 25 0a 3e c6 e9 6f bd
       -0.32601374 -0.47641772 0.13490793 -0.058572553
0001c0 f3 da da 3e 7f 4a 87 3b b9 a8 20 3e 0d ff 31 be
       0.4274517 0.0041287537 0.15689363 -0.1738245
0001d0 ef e1 47 bd e4 42 a9 be 32 ca 53 be 3e e4 6c be
       -0.04879945 -0.33058846 -0.206826 -0.23133942
0001e0 69 fb 5d bd b8 77 95 3e e0 55 17 be a5 80 f4 3d
       -0.05419484 0.291929 -0.14778852 0.119385995
0001f0 49 54 a2 3b 87 e0 32 3e 4f 24 8b be 4a dd 93 3d
       0.004953895 0.17468463 -0.2717614 0.07219942
000200 6a b6 a2 3e be d2 58 3d 80 17 80 3c 08 7f 11 bd
       0.31779796 0.052935354 0.015636206 -0.035521537
000210 8b b5 9b bd 85 2a 90 3e f6 aa 47 bd 31 7a 4b be
       -0.07602986 0.2815744 -0.048747025 -0.19870831
000220 c8 bd 0b 3f aa 0a c2 3d b7 3e 07 bc a2 e0 04 3e
       0.5458646 0.0947469 -0.0082546985 0.12976316
000230 ef 03 fa bd b2 a2 65 be 4e be 7c 3e fd 7d 3f bc
       -0.122077815 -0.22425345 0.2468197 -0.011687753
000240 b5 d8 d6 be a0 f6 70 bd 42 e6 9a 3d 06 9c 97 bc
       -0.4196221 -0.05882895 0.075634494 -0.018507015
000250 4d a1 2c 3d 79 9f b3 3d 54 f8 1f 3b 76 e6 ca 3d
       0.042146016 0.08770651 0.002440949 0.09907238
000260 74 20 2c 3e 44 11 a7 3e d9 b6 ef 3e dd 6b bd 3e
       0.16809255 0.3263036 0.4681919 0.36996356
000270 5a b5 d4 be 11 c9 ad be 86 08 d0 3b 6a ef b2 3d
       -0.4154461 -0.33942464 0.0063486723 0.08737071
000280 9f b9 1c 3e dc 35 d2 3d c0 89 02 bf bf 0f 07 3e
       0.15305184 0.10264179 -0.5099144 0.131896
000290 a7 85 01 3e bf 0a 97 be 36 9a 79 be ce 93 90 3e
       0.1264864 -0.29500386 -0.24375233 0.28237766
0002a0 45 34 84 3e da f3 08 bf e3 40 f9 bd 6a bc 1a be
       0.25821128 -0.5349709 -0.12170579 -0.15110937
0002b0 92 98 27 3e 46 4f 18 bd f7 91 c4 bd 10 37 d1 bd
       0.16366795 -0.037184976 -0.09598153 -0.102155805
0002c0 9b 47 9c be 2c 86 6b 39 7a 1a ab be 48 e1 f0 bd
       -0.3052338 0.0002246133 -0.33418638 -0.11761719
0002d0 04 9b 78 3e 60 67 b8 be 00 d9 ea 3d 21 90 91 3d
       0.24277884 -0.3601637 0.11467171 0.071075685
0002e0 a1 a7 58 3e 90 61 ca 3c 51 40 f4 bc ec b9 10 3e
       0.21157695 0.024704725 -0.029815825 0.14133424
0002f0 43 d6 81 be 88 10 32 be 8d cb f8 be 5d 19 51 3d
       -0.2535878 -0.17389119 -0.48592797 0.05104958
000300 96 1e aa 3c 2c fa 8a 3e 48 4a ee bd 55 f3 b2 3e
       0.020766538 0.2714399 -0.11635262 0.34951273
000310 eb e7 76 3d 8b b0 3c 3e aa 93 38 3e 30 b4 af be
       0.060279768 0.18426721 0.1802508 -0.3431716
000320 a5 77 cb be ba ea 8d 3d db 7f 9c bd 51 07 fd 3d
       -0.3973972 0.06929536 -0.07641574 0.12354911
000330 00 05 3c be f4 42 9f 3d 18 5e 1f bd f2 21 9f be
       -0.18361282 0.07776442 -0.038908094 -0.31080586
000340 ab 00 92 bd b1 a6 b6 3d 79 32 ab be b8 60 d0 bd
       -0.07129034 0.089185126 -0.33436945 -0.10174698
000350 2f 7c 8a bc e1 7a bc be b7 61 69 3e 35 61 c7 3d
       -0.016904918 -0.368125 0.22791182 0.09735338
000360 8c 20 10 bd 77 fe bf 3e 5f c1 35 bd 69 85 b8 bc
       -0.03518729 0.3749883 -0.044373866 -0.022524552
000370 89 28 c8 3e 56 e7 e4 3c 7c 01 1a 3e 48 65 a7 bd
       0.39093426 0.02794234 0.15039629 -0.08173615
000380 02 00 cc 3e d8 3e ee bc 28 73 a9 3e 18 78 82 3e
       0.39843756 -0.0290827 0.3309567 0.2548225
000390 1d ef 85 3e 4d 02 8e 3d 0f 0a c1 3d fa 18 50 3d
       0.2615899 0.069340326 0.09425747 0.05080507
0003a0 cd 55 60 be c7 8f 8a be 82 3a ac be c3 3c f2 3e
       -0.2190773 -0.27062818 -0.33638388 0.47311983
0003b0 fc 6f ff bd 87 99 00 be 2c d6 7f be 85 e4 3b bd
       -0.12472531 -0.12558566 -0.24984044 -0.04587223
0003c0 38 06 a4 3e f4 66 b6 bb 41 db 21 3d f4 1f 30 bd
       0.32035995 -0.005566472 0.039515737 -0.042999223
0003d0 f8 13 95 be c4 8a 90 bb a8 39 6a 3e 3c 2b 7c bd
       -0.29116797 -0.0044110734 0.22873557 -0.06156467
0003e0 f4 85 63 3c 09 73 2a be 34 4b 2f be f9 26 b0 3e
       0.013886917 -0.16645445 -0.17118531 0.34404734
0003f0 c1 12 0f 3e a9 eb ae be f8 d5 57 bd 8b 41 be 3c
       0.13971998 -0.3416417 -0.05269429 0.023224613

model.0.bias f4 [128]
000000 59 cd e0 be fe 20 3c be c4 d9 ea be d8 8d b7 bd
       -0.43906668 -0.1837196 -0.45869267 -0.089626014
000010 49 b6 4b bd 58 c5 02 bf 60 03 27 bf 08 88 89 bc
       -0.049734388 -0.5108237 -0.65239525 -0.016788498
000020 7e dc 2b bf 01 dc 43 be a0 10 00 3d c4 87 75 be
       -0.6713332 -0.19126894 0.031265855 -0.23977572
000030 e9 eb 0c be c0 56 26 bf f6 ae 91 be d3 53 d5 be
       -0.13761868 -0.6497612 -0.28453797 -0.41665515
000040 a9 6e 23 bf 10 41 86 be 49 8d fc be ef f0 2a be
       -0.6384073 -0.26221514 -0.49326542 -0.16693471
000050 3d 37 c4 be dc 05 08 bf b7 e3 19 be 16 01 b9 3d
       -0.38323393 -0.5313394 -0.15028273 0.0903341
000060 a8 d7 f7 be b1 22 e9 be 1a 1b dc bb 82 fc 67 be
       -0.4840672 -0.4553428 -0.006717098 -0.22654918
000070 36 08 64 be 34 ae f7 bd 51 d2 82 be 4b f8 ae bd
       -0.22268757 -0.120937735 -0.25551084 -0.08543452
000080 ba e2 05 be df 8f 88 be 5f 6c 55 3e 40 f5 eb be
       -0.1307477 -0.26672265 0.20842122 -0.46085548
000090 09 e6 98 bd 14 17 6e bc b7 31 a2 be 2b 87 55 be
       -0.07465751 -0.014531869 -0.31678554 -0.20852344
0000a0 31 30 56 be 10 bd 82 be 39 39 a4 be 9d 4b 48 be
       -0.20916821 -0.25534868 -0.32074907 -0.19560094
0000b0 38 7c d6 be 54 c7 b4 be 62 dd 19 3d 55 68 37 be
       -0.41891646 -0.35308325 0.037564643 -0.17910893
0000c0 5e 04 2e be 50 8d 99 be 4b 85 80 be b9 2d 22 bf
       -0.16993853 -0.29990625 -0.25101694 -0.6335102
0000d0 69 9d 82 be 27 61 ff be f0 99 d9 be ed 40 ef bd
       -0.2551072 -0.4987881 -0.42500257 -0.116823055
0000e0 a5 e0 a1 be 49 f8 a8 be f9 e3 18 be f7 7c 02 bf
       -0.31616703 -0.33001927 -0.14930715 -0.5097193
0000f0 9a 10 76 bd 56 5e 05 bf 32 bd ed be 20 da 43 bd
       -0.060074426 -0.5209707 -0.46433407 -0.047815442
000100 7b 01 a0 3d b0 2f a0 3d a1 0a 3a be 8e 0d ab be
       0.078127824 0.07821596 -0.18168117 -0.3340878
000110 2b 46 16 bf 3c 94 a0 be 62 2a 19 bd 6c 7b 07 be
       -0.5870082 -0.31363094 -0.037393935 -0.13230675
000120 f1 3e 7f be 2e 85 dd be 0a 36 06 bf 50 16 44 bd
       -0.24926354 -0.4326567 -0.5242621 -0.04787284
000130 f4 5f 47 bf 0a 4d 0b bf 4a 6d fc bd b3 fb fb be
       -0.7788079 -0.5441443 -0.12325533 -0.4921547
000140 00 48 0a bf 90 52 f5 be e8 42 da 3d 0b 2a a7 be
       -0.54016113 -0.47914553 0.106572926 -0.32649264
000150 89 1e f7 be 78 c9 a9 bd 7e 62 d1 bd ee bd 85 be
       -0.48265484 -0.0829038 -0.10223864 -0.26121467
000160 92 4e df be 26 64 12 be 0a cd 5f bd 53 b6 ac be
       -0.43614632 -0.14296016 -0.0546389 -0.33732852
000170 ef 9f 01 bf a2 67 07 be e4 1a 24 be ad 05 59 be
       -0.50634664 -0.13223127 -0.16025883 -0.21193571
000180 27 16 b7 be 6a 09 dc be e8 a8 d3 bb bb 4f 85 3d
       -0.35759088 -0.42975932 -0.006459344 0.06509348
000190 cc 30 1a bf 52 92 e1 be a4 5d 8b be fb d4 98 be
       -0.6023071 -0.44056946 -0.2721988 -0.2984999
0001a0 c3 f4 38 bf 44 9f ca be ac 7d c5 be 65 99 a6 be
       -0.72248477 -0.39574635 -0.38572443 -0.32538906
0001b0 a0 82 72 3d b2 68 c7 be ed 95 24 bf cb f5 56 be
       0.059206605 -0.38947064 -0.6429127 -0.209922
0001c0 36 ff 23 be f8 03 2a bf 81 74 6e be 90 67 3e bf
       -0.16015324 -0.66412306 -0.2328663 -0.74376774
0001d0 90 1a fb be 4e 54 0f bf 85 17 a4 bd 6e 54 f5 be
       -0.49043703 -0.55988014 -0.080122985 -0.47915977
0001e0 2b 57 2f bf ca 53 45 bf 31 78 7c be e3 65 e6 bd
       -0.6849238 -0.77080977 -0.24655224 -0.11249902
0001f0 43 08 c0 be 18 fe 25 be 64 54 cb be af 29 09 be
       -0.37506303 -0.1621021 -0.39712822 -0.13394807

model.3.weight f4 [64, 128]
000000 f9 a4 15 be b6 45 3b be 9b 28 b1 3d c1 e8 21 3d
       -0.14613713 -0.18288311 0.08650323 0.039528612
000010 00 e0 56 3e 28 02 b1 be 2b 04 1a bd fb f5 31 3e
       0.20983887 -0.34571958 -0.03760163 0.1737899
000020 a0 71 3c bf 65 5b 2b be 5e cf 15 bf 90 6b 57 3c
       -0.7361088 -0.16734083 -0.5851954 0.0131482035
000030 4a f9 c6 bc 8a 8d 56 bd b0 73 ca 3d 37 73 72 3e
       -0.024288792 -0.052381076 0.09885347 0.23676763
000040 1e b5 3f be 5f 9f ab bd 74 f4 08 bf f9 ca 04 bd
       -0.18721434 -0.08380007 -0.53498006 -0.032420132
000050 56 ae 2d be 5c 06 7f 3c 57 75 b6 3d 31 e4 cf 3d
       -0.16961035 0.015565481 0.089090995 0.10150946
000060 ce ef d8 be d5 bd 35 3d 49 4c 4b 3c cc 94 1f be
       -0.42370456 0.04437049 0.0124083245 -0.15584105
000070 ef 08 4b be aa ee b0 bd 28 dd 6c bd 24 d0 7e bd
       -0.19827627 -0.086392716 -0.0578281 -0.062210217
000080 a4 da d1 bc a9 ea 0a bf 0a 3c 20 be 4a 15 0c bf
       -0.025616951 -0.54264313 -0.15647903 -0.54719985
000090 8c e5 0c 3e 2d 4b ac 3d f6 5d 8c 3e a6 29 36 3e
       0.1375944 0.08412776 0.27415437 0.17789325
0000a0 b9 94 0c bf 8d 9d 76 be ea 88 da be 37 c4 18 3e
       -0.5491443 -0.24083538 -0.42682582 0.149186
0000b0 7b 3c 16 bf 24 5f 94 3b fb f2 5d bc de c8 ed 3d
       -0.58686036 0.004527943 -0.013546701 0.11610578
0000c0 04 99 37 be e1 20 56 be b2 5c 06 3e c4 7d be be
       -0.17929465 -0.2091098 0.13121298 -0.37205327
0000d0 f2 dd c1 3d 72 a5 13 3e e9 13 d0 be fd bb 57 be
       0.09466161 0.14418581 -0.4064019 -0.21067806
0000e0 a4 f5 b3 3e 7b ad 81 bd 8a 08 bb 3c 4d 03 62 be
       0.35148346 -0.06331917 0.02283122 -0.22071572
0000f0 b1 89 0e bf d6 d6 2a bf 36 fc 18 3e 0d 18 06 bf
       -0.5567885 -0.66734064 0.14939961 -0.5238045
000100 34 78 59 be df 77 95 be 27 26 28 3e fe e0 59 bf
       -0.2123726 -0.29193017 0.16420804 -0.85108936
000110 df 72 3d bd 2f e6 10 bf a5 98 89 bc df 4d 07 be
       -0.046252128 -0.5660123 -0.01679642 -0.13213299
000120 c1 83 5f 3e 5d b3 40 bc 64 03 35 bf ba 6d 82 3c
       0.21827604 -0.011761514 -0.707083 0.015921462
000130 37 5e cc 3d e1 e2 2b be bc 8e b1 3d cf 66 0f be
       0.099789076 -0.16785766 0.086698025 -0.14004062
000140 64 b6 07 bf 58 39 e7 bd 81 1e 45 3e 53 fb 53 3e
       -0.5301268 -0.11290234 0.19249918 0.20701341
000150 9d 74 9a be 23 55 28 bc bd 82 11 bf 82 bb 1c 3c
       -0.30167094 -0.010274204 -0.56840116 0.00956619
000160 71 1a 74 bd a9 27 ae 3d 58 7e 61 bc 70 56 b2 bd
       -0.05959553 0.08503658 -0.013763033 -0.08707893
000170 38 b9 2e 3d 51 d1 3d 3e fb 3a 12 3e 2f 52 6d be
       0.042657107 0.18536879 0.14280312 -0.23175882
000180 c0 98 aa bc d0 00 c2 3c 1a b8 c1 3d ad 94 cd bd
       -0.02082479 0.023682028 0.09458943 -0.10038123
000190 16 93 84 3c 7d 6f 52 3e c7 79 ef 3d 23 90 cd bd
       0.016183417 0.20550342 0.11693149 -0.100372575
0001a0 6d c2 60 bf 85 97 9c 3d 10 be 2f 3e 27 1a 38 3e
       -0.8779667 0.076460876 0.17162347 0.17978726
0001b0 d1 94 37 3e 74 a6 35 be e3 b1 a4 3d 8d 5d 02 3d
       0.17927863 -0.17739278 0.08041742 0.0318275
0001c0 8a 47 e5 bd ce 3b d5 3e cd 2b 21 bd 83 86 26 bd
       -0.111952856 0.4164719 -0.039348412 -0.040655624
0001d0 75 c5 06 bf 8b f8 ba be f1 fc 8f be fc f4 42 be
       -0.52645046 -0.36517748 -0.28122666 -0.19038767
0001e0 2a f6 c2 bd 09 3e 9f 3d 79 1e d4 3c f5 bb 28 be
       -0.09519608 0.07775504 0.025893437 -0.1647795
0001f0 30 a5 46 be 59 03 68 bf 60 0e fc be 1d 8e 9b bd
       -0.19398952 -0.9063011 -0.49229717 -0.07595465
000200 a2 a3 bf be 7a 08 d6 bc 55 a5 fa be 41 65 1a bf
       -0.3742953 -0.026127089 -0.48954263 -0.6031075
000210 65 c4 84 bd 33 ff 8e 3e fb fe ef be 79 80 87 bd
       -0.06482772 0.27929077 -0.46874222 -0.06616301
000220 e3 30 2a be 8c 74 ce bd 46 bd a6 3d d9 04 b1 3c
       -0.16620211 -0.10080823 0.0814157 0.021608757
000230 15 0d 10 3e fe fc 44 3d c2 b6 55 be da 35 29 bf
       0.1406749 0.048092835 -0.20870498 -0.66097796
000240 32 5e 09 bf 70 d2 e3 be 92 2d 09 3e b3 84 bd 3d
       -0.53659356 -0.4449649 0.1339629 0.09253826
000250 5b 89 08 be 85 33 5c 3d 0b b3 ac bd 1d cc da 3b
       -0.13333647 0.05376007 -0.08432587 0.006677164
000260 6d 2d db be 92 1d 98 be 75 62 68 3e dd 3e ad bd
       -0.42808095 -0.2971006 0.22693808 -0.08459256
000270 48 68 72 3e 45 b6 b9 be 4b c0 88 be dd 7c 49 bd
       0.23672593 -0.36271873 -0.26709208 -0.049191345
000280 c7 a4 f6 bd 81 97 2e bc 81 70 c1 3d fd 73 fc 3d
       -0.120431475 -0.0106562385 0.094452865 0.123268105
000290 5d a9 78 3d 7b 57 b3 bb c1 96 3e 3e d4 0e 3d bc
       0.060708392 -0.005473075 0.18612196 -0.01153918
0002a0 56 00 14 bc b8 fd 43 3e b0 46 b5 bd ff d1 28 be
       -0.009033283 0.19139755 -0.08851373 -0.16486357
0002b0 e2 79 4c 3c a2 60 39 be 4e 31 81 3d 39 d4 fd be
       0.012480231 -0.18103269 0.06308232 -0.49575976
0002c0 18 03 86 3c 2a e7 8a bf 0a 08 64 be f2 16 86 bf
       0.016358897 -1.0851796 -0.22268692 -1.0475752
0002d0 16 49 43 be ab a5 27 3e 40 d2 db 3c ae 36 1d be
       -0.19070849 0.16371791 0.026833653 -0.1535289
0002e0 db 72 b1 bd 45 7d 23 3e 49 1f 20 bd 70 f6 05 be
       -0.08664485 0.15965755 -0.039092336 -0.1308229
0002f0 c8 11 b4 3c 1d c5 3d bf 8e fd 3e 3e 10 40 11 bd
       0.021981135 -0.74128896 0.18651411 -0.035461485
000300 29 25 4c 3d 40 af b0 bb 51 76 b9 3d 08 12 f6 bd
       0.049840126 -0.005391985 0.0905577 -0.12015158
000310 ad a1 47 be 06 56 06 3e 1f 18 25 bf 56 a6 5d 3e
       -0.19495268 0.13118753 -0.6448993 0.21645483
000320 27 d5 0a be 84 f1 16 be 5b 6a 1d bf 01 a6 05 3e
       -0.13557874 -0.14740568 -0.6149041 0.13051607
000330 d5 dd 62 bf 2c d4 89 3e 0a 69 c6 3d 3c 52 31 bd
       -0.8861974 0.26919687 0.09688003 -0.043291315
000340 39 22 ff 3d 1a 3e 27 bf 2f 7f ab 3d 00 07 f5 3b
       0.12457699 -0.65329134 0.08373868 0.007477641
000350 68 5e 37 3e 69 91 0a ba 46 58 be 3b 2a 36 6e bd
       0.17907107 -0.000528595 0.005808863 -0.058157124
000360 a2 69 aa 3d 4b ea 11 be c4 24 b1 3d 70 15 4d 3e
       0.08320929 -0.14249532 0.086495906 0.20027709
000370 cf e6 74 be 02 64 fb 3c 8b d0 cc 3d 75 7e 99 be
       -0.23916171 0.030687336 0.10000714 -0.29979292
000380 91 75 a6 bd 09 e0 ca 3d 09 24 f3 bd d0 a7 80 be
       -0.08127893 0.099060126 -0.118721075 -0.2512803
000390 a5 be 7d bb 54 a0 08 3e 90 f4 0c bb 43 e3 55 3e
       -0.003871837 0.1334241 -0.0021508075 0.20887475
0003a0 20 59 c2 bc 21 0a 01 3d 87 9f 1d 3e 29 77 c5 3e
       -0.023724139 0.0315038 0.15392886 0.38567474
0003b0 70 d9 96 bb 92 cb 21 3e 4d d1 85 3e 3c 87 23 bf
       -0.0046035573 0.15800312 0.26136246 -0.63878226
0003c0 37 ea 11 bf ad d9 69 bf 26 e4 10 3e 68 52 e5 3d
       -0.5699801 -0.9134777 0.14149532 0.11197358
0003d0 34 1a 8f 3e b2 86 40 bd 9d ad 0f be 8e 46 e5 be
       0.2794968 -0.047003455 -0.14031072 -0.4478039
0003e0 97 77 18 3e f6 46 9a bf 32 36 93 be eb 74 74 3c
       0.1488937 -1.2052906 -0.28752285 0.014920454
0003f0 cc b7 49 be 78 8d 59 3d 9d 37 7e 3e 69 bc b0 be
       -0.19699019 0.05311343 0.24825902 -0.34518746

model.3.bias f4 [64]
000000 d8 bf 83 3e 06 00 69 3e 9e 79 c2 3e cc 2c ba 3e
       0.25732303 0.22753915 0.37983412 0.36362302
000010 1c 28 83 3c 51 ac 04 3e eb 5f a9 3e 53 2a c3 3d
       0.016010337 0.12956358 0.33080992 0.09529557
000020 cf f1 98 3d 8d ec c9 3e 24 aa a7 3e 29 f7 12 3d
       0.07467996 0.39438286 0.32746994 0.03588024
000030 7c b5 56 3e cb fc 2d 3e 8d c1 ce bc 32 ce be bd
       0.20967668 0.16990964 -0.025238777 -0.093166724
000040 7b f4 6c 3e 66 96 8f bc a1 d1 10 3e fd 16 0f 3e
       0.23140137 -0.01752777 0.14142467 0.13973613
000050 43 42 7f 3e 2b 54 8d 3d ba be 6a 3e 11 aa 60 be
       0.2492762 0.069008194 0.22924319 -0.21939875
000060 b3 85 e5 3e 9e 8f a0 3d 5a b5 b5 3e 1b a5 b7 3e
       0.44828567 0.07839893 0.35489923 0.35868153
000070 11 73 6b 3e e6 e6 ef 3d 58 6d 92 3d 98 64 e7 bd
       0.22993113 0.11713962 0.07149762 -0.112984836
000080 55 d6 25 3e 96 41 c8 3e 96 06 50 be e8 b2 11 3e
       0.16195042 0.39112538 -0.20315012 0.14228404
000090 8e 39 c8 3d 3f 16 f0 bd 1f 27 c0 3d ab f0 01 3e
       0.09776603 -0.11722993 0.09382462 0.12689464
0000a0 8e c9 15 be 20 9d bd 3e 6a b6 91 bd f5 06 39 3e
       -0.14627668 0.3703394 -0.07114871 0.1806906
0000b0 f1 ec b1 3d f9 3e 2f 3e 40 2f 9b 3e 12 4e 6d be
       0.08687771 0.17113866 0.30309486 -0.23174313
0000c0 42 0a 4f 3e 8b b1 b0 bd e5 a0 91 bd 23 4a 8d 3e
       0.20218757 -0.08627614 -0.07110766 0.27595624
0000d0 ed 03 38 3e f6 2f 9e 3e 46 23 85 3e bc ac b6 3e
       0.17970248 0.30895966 0.26003474 0.3567866
0000e0 ff a2 c5 3e 0b ab 15 3e 7c bc 20 3e 63 18 34 3e
       0.3860092 0.14616029 0.15696901 0.17587428
0000f0 e1 37 7a 3e 7d 6e bc bd 37 92 f2 3e 5e 59 0a 3e
       0.24435379 -0.092007615 0.47377178 0.13510653

model.5.weight f4 [2, 64]
000000 07 ba 9f 3e 6c 7b 93 be e2 5e 3a be 95 79 e7 bd
       0.31196615 -0.288051 -0.18200257 -0.11302487
000010 0a 7d bc be f5 ad ba be e8 f8 e3 3e 17 2c 92 be
       -0.36814147 -0.36460844 0.44525838 -0.28549263
000020 db 3c 27 3f 00 ea 96 be 38 38 42 3e 5c bc 0c bf
       0.65327233 -0.29475403 0.18966758 -0.54974914
000030 61 2d 9f be 99 60 95 be 02 37 c2 3d 8d 8e 19 3f
       -0.3108931 -0.2917526 0.09483148 0.5998314
000040 98 a4 b9 be c6 72 2f be 0b ea 25 3e f7 b7 29 be
       -0.36258388 -0.17133626 0.16202562 -0.16574083
000050 47 e7 32 3e d5 59 c1 be 17 2b 03 bf 56 52 2b 3d
       0.17471038 -0.3776385 -0.51237625 0.04182657
000060 41 9a 97 be 41 6f a5 3e aa fe 92 bd e0 55 c1 bd
       -0.29609874 0.32311442 -0.071774796 -0.094402075
000070 b3 05 50 bf 0c 26 10 3f 92 2d 7c 3e a0 6d a9 3d
       -0.81258696 0.56308055 0.24626759 0.082728624
000080 53 8d 92 be 91 f2 09 bf 76 93 43 3d 52 28 c8 be
       -0.28623447 -0.5388575 0.04774805 -0.39093262
000090 ef 04 3f 3e 80 76 d2 be 21 fa 46 3d 81 31 fe 3e
       0.18654226 -0.41106033 0.048578385 0.49647143
0000a0 43 bf f9 3e 49 1f d0 bd 94 ec ef be 0a 69 d5 3c
       0.48778734 -0.10162217 -0.46860182 0.026051063
0000b0 a8 ac a0 3d 57 1c 08 bf cf e6 9c be b2 35 13 3e
       0.078454316 -0.53168243 -0.30644843 0.14375952
0000c0 00 aa 9f 3e b2 48 83 3e a3 72 a7 3e 91 10 bc 3e
       0.31184387 0.256414 0.32704648 0.3673139
0000d0 7b aa 69 be 8d 25 2b be 7f 65 b1 be 21 b9 43 3e
       -0.2281894 -0.16713543 -0.34647748 0.1911359
0000e0 3d 0a 9c be 29 1f 94 3e 84 13 ca 3e d8 5e c5 3e
       -0.3047656 0.28930023 0.39468014 0.38548923
0000f0 8d 33 e8 bb 75 c3 e1 be 4b 23 88 be 9c ce e1 3d
       -0.0070862235 -0.44094434 -0.26589426 0.11025736
000100 8e 36 8c be 83 b1 b5 3e 16 3c 26 3e 86 5b 06 3e
       -0.27385372 0.35486993 0.16233858 0.13120851
000110 52 6a 1a 3e b6 41 94 3e 7d f6 c7 be 5e 43 ab 3e
       0.1507962 0.28956383 -0.39055243 0.33449835
000120 57 4e fe be f5 89 86 3e 97 8a 73 be 52 83 20 3f
       -0.49669144 0.26277128 -0.23783337 0.6270038
000130 27 69 e5 3e 96 4f a0 3e b1 7d f9 bd f2 0a dd be
       0.44806787 0.3131072 -0.12182177 -0.43172413
000140 c9 39 ef 3e 5f 26 4e 3e 99 4d cf bd 0f ca 29 3e
       0.46723774 0.20131825 -0.101222225 0.16580985
000150 25 22 8d be 1c 26 f3 3e 46 fa a6 3e 46 6b 39 3d
       -0.27565113 0.47490013 0.32612818 0.04526832
000160 7c b6 73 3e 6e 38 f4 be 83 68 e1 3d 72 4e c8 3d
       0.23800081 -0.47699302 0.11006262 0.09780587
000170 c9 ce 43 3f 5c 8b c5 be 80 30 a6 be 8c 80 de 3d
       0.76487404 -0.38582885 -0.32458878 0.10864362
000180 a2 5b 9e 3e db 0b 03 3f ef 57 35 3d 4f b4 ce 3e
       0.30929285 0.51189965 0.044273313 0.4037194
000190 2e 78 9f be 45 44 a7 3e e8 21 96 bd 51 bb fd be
       -0.31146377 0.32669273 -0.07330686 -0.49556974
0001a0 bf 93 8f be 31 db 1c 3e ed 0a 13 3f 96 a4 32 be
       -0.2804241 0.1531799 0.57438546 -0.17445597
0001b0 7e 41 0f be 7d 1f 19 3f f0 9f a2 3e a8 2e bc be
       -0.13989827 0.5981367 0.31762648 -0.36754346
0001c0 4b a7 b4 be b8 74 9a be ab 72 42 be 35 41 4d be
       -0.35283884 -0.30167174 -0.18989055 -0.20044406
0001d0 f7 ee e1 3e 56 c3 3f 3e 78 30 71 3e 83 5f 39 be
       0.44127628 0.18726858 0.23553646 -0.18102841
0001e0 a2 0d 5a 3e 32 d0 95 be d9 4f c8 be 4d a6 04 bf
       0.21294263 -0.29260403 -0.3912342 -0.51816255
0001f0 4f 96 63 3d 22 c3 de 3e 4b 64 7c 3d 0f a8 37 be
       0.055563267 0.4350825 0.061619084 -0.17935203

model.5.bias f4 [2]
000000 88 a5 f0 bd 28 5e 31 3d
       -0.117503226 0.043302685
